…
        self.precision.reset_states()
        self.recall.reset_states()

# Compile with extra metrics
model.compile(
    optimizer='adam',
    loss='categorical_crossentropy',
    metrics=['accuracy', Precision(name='precision'), Recall(name='recall'), F1Score()]
)

model.fit(X, y, epochs=50, batch_size=32)
model.summary()


Model: "functional_2"
┏━━━━━━━━━━━━━━━━━━━━━━━━━━━━━━━━━┳━━━━━━━━━━━━━━━━━━━━━━━━┳━━━━━━━━━━━━━━━┓
┃ Layer (type)                    ┃ Output Shape           ┃       Param # ┃
┡━━━━━━━━━━━━━━━━━━━━━━━━━━━━━━━━━╇━━━━━━━━━━━━━━━━━━━━━━━━╇━━━━━━━━━━━━━━━┩
│ input_layer_2 (InputLayer)      │ (None, 30, 1662)       │             0 │
├─────────────────────────────────┼────────────────────────┼───────────────┤
│ lstm_4 (LSTM)                   │ (None, 30, 64)         │       442,112 │
├─────────────────────────────────┼────────────────────────┼───────────────┤
│ lstm_5 (LSTM)                   │ (None, 30, 128)        │        98,816 │
├─────────────────────────────────┼────────────────────────┼───────────────┤
│ temporal_attention_2            │ (None, 128)            │           158 │
│ (TemporalAttention)             │                        │               │
├─────────────────────────────────┼────────────────────────┼───────────────┤
│ dense_6 (Dense)                 │ (None, 64)             │         8,256 │
├─────────────────────────────────┼────────────────────────┼───────────────┤
│ dropout_2 (Dropout)             │ (None, 64)             │             0 │
├─────────────────────────────────┼────────────────────────┼───────────────┤
│ dense_7 (Dense)                 │ (None, 32)             │         2,080 │
├─────────────────────────────────┼────────────────────────┼───────────────┤
│ dense_8 (Dense)                 │ (None, 10)             │           330 │
└─────────────────────────────────┴────────────────────────┴───────────────┘
 Total params: 1,655,258 (6.31 MB)
 Trainable params: 551,752 (2.10 MB)
 Non-trainable params: 0 (0.00 B)
 Optimizer params: 1,103,506 (4.21 MB)


8. Make Predictions
res = model.predict(X_test)
actions[np.argmax(res[4])]
'hello'
actions[np.argmax(y_test[4])]
'hello'
9. Save Weights
model.save('action.h5')
del model
model.load_weights('action.h5')
…
